Users/lucas/Downloads/LORAs/adapter_model.safetensors (safetensors, 758936 bytes, 104 tensors)

base_model.model.model.layers.0.self_attn.q_proj.lora_A.weight f4 [2, 1152]
0.025784723 -0.0085095465 -0.0023360653 0.01207287 -0.0024789425 0.022345848 -0.025068833 0.013453945
0.018390005 0.0096803475 -0.0153003475 0.0269461 0.0006422021 0.009228502 0.0066225585 0.024547197
0.0037861313 0.019809714 0.009260992 -0.018698728 0.028010564 -0.0042029177 0.0011464525 0.023542784
-0.023296557 0.017455677 -0.009675298 0.001412584 0.016881958 0.021630874 0.02218472 0.013421321
0.0055956314 0.018886693 0.0075360774 -0.028932065 -0.010028649 0.02554043 -0.003938732 -0.011221859
-0.0032325708 0.022823013 -0.011595413 0.027638314 -0.0014858247 -0.013669035 -0.0020806585 -0.017252164
0.023176238 -0.022865558 -0.0022078045 0.01858937 -0.01522632 -0.016852465 0.01781167 0.0081212185
-0.0055023544 0.0019832735 -0.0052982722 -0.023897324 -0.0019236809 -0.0058339513 0.019100873 0.023466136
0.024623077 -0.011112692 0.0077305995 -0.025175333 -0.004421666 0.011226333 0.004751634 0.009391394
0.023526149 0.0039261533 -0.009595438 -0.02282291 0.0130458325 0.018306464 -0.002085437 0.028219203
0.007644361 -0.019952169 -0.022291552 0.010672191 0.018085161 0.007760687 -0.0076124608 -0.028248277
0.0021866525 -0.008961955 -0.001348064 -0.0035452284 0.009754075 -0.024562087 0.0072712502 0.025469834
0.02030945 0.014927779 -0.0054048705 -0.021323347 -0.007227555 2.971569e-05 0.027743967 -0.0030109358
-0.010588191 0.024229545 -0.027952416 -0.028646365 -0.029337369 0.029252581 0.027165012 -0.011258259
0.02611966 -0.028953956 0.016679332 -0.028260775 -0.015508163 -0.015917493 0.020956181 -0.02149189
0.00895326 -0.001555472 -0.01694409 -0.0039465562 -0.01852536 0.0021893457 -0.02711302 0.022051254
-0.02341698 -0.015431556 0.008645888 -0.021076523 0.008246108 -0.011588053 0.028431525 0.00088578404
0.015145999 -0.01678821 0.006112463 0.019741822 -0.006074816 -0.0029617655 -0.0063697537 -0.0026599558
-0.000421273 0.0030962494 0.015437286 0.024846809 -0.012813169 0.02355728 0.012745893 -0.007945398
-0.023301594 -0.009193741 -0.0030812707 0.003292574 -0.01269548 -0.00087170536 -0.021195412 -0.012867664
0.024342386 -0.021687895 -0.013476971 -0.0019972776 -0.0042743706 0.010796231 -0.010772867 -0.017040744
0.01016209 0.027981421 -0.022964697 0.013547847 0.022181707 -0.014964215 -0.020428827 0.011054385
0.025921589 -0.026502527 -0.0031088586 0.013857519 0.018322136 -0.028270893 -0.013709685 -0.019488448
-0.018416569 -0.0040142233 0.017202862 0.008993313 -0.010660156 -0.0026018568 0.0063614314 0.0028942009
-0.014722997 -0.017097484 -0.008375624 0.0038774048 -0.021669375 0.014863156 0.02688949 0.012850652
-0.008660849 0.007322465 -0.013662623 0.00048729836 -0.019704022 -0.0034087573 -0.009758532 0.023440218
0.028109038 0.029430348 0.024168232 -0.0016679238 0.015839998 0.013917746 -0.016675161 0.006458148
0.01649081 0.005849986 -0.009321462 -0.026405139 0.008127432 0.011967999 0.011661741 0.023639413
-0.014200978 -0.0010793157 -0.026345372 -0.0062301415 -0.017774869 -0.015100067 -0.01607295 -0.0025745803
0.0031509732 -0.023144463 -0.009694195 0.027513899 -0.026560418 -0.009805978 0.025761362 -0.025541294
-0.021456687 -0.016927771 0.029300991 -0.002232753 -0.023261717 0.02486525 0.029009426 -0.005098298
-0.027997738 -0.025506483 0.026217863 0.026356425 0.019533595 0.026959157 0.021304114 -0.016517386
00000000: 7c3a d33c a06b 0bbc ac18 19bb 49cd 453c
00000010: c175 22bb a40e b73c 275d cdbc ef6d 5c3c
00000020: a3a6 963c 529a 1e3c 4fae 7abc 11be dc3c
00000030: 7459 283a 2533 173c 0c02 d93b 3417 c93c
00000040: be20 783b fb47 a23c 6abb 173c 132e 99bc
00000050: 6976 e53c a1b8 89bb 9044 963a ccdc c03c
00000060: 6cd8 bebc 35ff 8e3c 2485 1ebc 7426 b93a
00000070: 084c 8a3c 3b33 b13c bbbc b53c 1ae5 5b3c
00000080: 8f5b b73b 44b8 9a3c 33f1 f63b f002 edbc
00000090: 344f 24bc 2a3a d13c 7b10 81bb e3db 37bc
000000a0: 8ad9 53bb 54f7 ba3c b0fa 3dbc bf69 e23c
000000b0: 01c0 c2ba 17f4 5fbc a85b 08bb 6954 8dbc
000000c0: 18dc bd3c 8d50 bbbc d0b0 10bb bc48 983c
000000d0: d177 79bc 2e0e 8abc c8e9 913c dc0e 053c
000000e0: 184d b4bb cff9 013b 219d adbb 52c4 c3bc
000000f0: 0524 fcba bb2a bfbb 6f79 9c3c 0e3c c03c
00000100: 56b6 c93c 0212 36bc f850 fd3b 803c cebc
00000110: 9fe3 90bb a7ee 373c 98b3 9b3b 5dde 193c
00000120: e9b9 c03c f6a6 803b 2f36 1dbc 1df7 babc
00000130: 30be 553c 70f7 953c d4ab 08bb f52b e73c
00000140: 8c7d fa3b bb72 a3bc c69c b6bc 6ada 2e3c
00000150: 5527 943c 5c4d fe3b f371 f9bb ee68 e7bc
00000160: f14d 0f3b 2ad5 12bc 86b1 b0ba 1057 68bb
00000170: 8ecf 1f3c 6e36 c9bc ab43 ee3b 1da6 d03c
00000180: 0160 a63c a593 743c 571b b1bb 4dae aebc
00000190: 20d5 ecbb f545 f937 5147 e33c 1f53 45bb
000001a0: 187a 2dbc 0a7d c63c 77fc e4bc c8ab eabc
000001b0: ec54 f0bc 1ca3 ef3c 2989 de3c 9074 38bc
000001c0: e6f8 d53c d930 edbc 18a3 883c 2483 e7bc
000001d0: f315 7ebc 6765 82bc 4cac ab3c c30f b0bc
000001e0: b2b0 123c fbe0 cbba 55ce 8abc 1d52 81bb
000001f0: 7fc2 97bc 207b 0f3b 201c debc d5a4 b43c
00000200: f7d4 bfbc a3d4 7cbc 7ca7 0d3c aca8 acbc
00000210: af1a 073c d1db 3dbc 3be9 e83c f633 683a
00000220: ed26 783c 6e87 89bc 0e4b c83b 9ab9 a13c
00000230: 400f c7bb 2e1a 42bb 5eb9 d0bb a752 2ebb
00000240: 4ede dcb9 72ea 4a3b acec 7c3c 898b cb3c
00000250: 53ee 51bc 32fb c03c 26d4 503c 6a2d 02bc
00000260: fce2 bebc 58a1 16bc 25ef 49bb 3ac8 573b
00000270: b400 50bc 2883 64ba 00a2 adbc e5d2 52bc
00000280: af69 c73c d0aa b1bc 83ce 5cbc c2e4 02bb
00000290: 0510 8cbb ade2 303c ae80 30bc 0899 8bbc
000002a0: e57e 263c 4b39 e53c 7620 bcbc caf7 5d3c
000002b0: 69b6 b53c 782c 75bc 5b5a a7bc 741d 353c
000002c0: 8359 d43c d41b d9bc febd 4bbb a60a 633c
000002d0: 4e18 963c 5c98 e7bc 969e 60bc 3da6 9fbc
000002e0: 58de 96bc bf89 83bb 04ed 8c3c b058 133c
000002f0: efa7 2ebc ea83 2abb 8e73 d03b a2ac 3d3b
00000300: ba38 71bc 0610 8cbc ea39 09bc 0f1c 7e3b
00000310: f983 b1bc 9884 733c 5947 dc3c 8b8b 523c
00000320: 3ce6 0dbc 4af1 ef3b 32d9 5fbc 147c ff39
00000330: 546a a1bc 7565 5fbb 40e2 1fbc b305 c03c
00000340: ed44 e63c ea17 f13c 75fc c53c 3c9e daba
00000350: e2c2 813c 4207 643c 599a 88bc df9e d33b
00000360: bc17 873c 3db1 bf3b 0cb9 18bc 974f d8bc
00000370: ec28 053c 6d15 443c e310 3f3c 71a7 c13c
00000380: 38ab 68bc d377 8dba 40d2 d7bc 3726 ccbb
00000390: 9a9c 91bc 4566 77bc 6bab 83bc 4aba 28bb
000003a0: 8f80 4e3b 7599 bdbc 67d4 1ebc d464 e13c
000003b0: 3c95 d9bc 41a9 20bc 7e09 d33c fa3b d1bc
000003c0: efc5 afbc 1cac 8abc a208 f03c 6153 12bb
000003d0: 5b8f bebc 35b2 cb3c 2da5 ed3c a00f a7bb
000003e0: 835b e5bc f9f2 d0bc d8c6 d63c 6ee9 d73c
000003f0: eb04 a03c 73d9 dc3c f785 ae3c 784f 87bc

base_model.model.model.layers.0.self_attn.q_proj.lora_B.weight f4 [1024, 2]
-0.00016840606 0.00015934957 -0.00016828685 0.00015770129 -0.00010994673 0.00015876656 -0.00017090801 0.00016848638
-0.00017234212 -2.8761437e-05 0.00017134941 -0.00015387885 -0.00017132932 0.00016937178 0.00016463513 8.752845e-05
7.21867e-05 0.000116992516 0.00017389971 -0.00012426019 -0.00016397389 0.00010013365 -0.0001650064 0.00015666564
0.00014919898 2.4488414e-05 -0.00015186935 0.00015629326 -0.00016657612 0.00013663669 -0.00017182565 9.74193e-06
-0.00015233534 -1.8215727e-05 0.00016835389 -0.00015518928 -0.00012822352 -8.3377665e-05 -0.00015580126 0.00016529273
-0.00016257596 0.0001532424 -0.00017001096 0.00013888604 -0.00015949259 0.00014708057 -0.00016862914 0.00015919648
-0.00015053507 0.00013445615 -0.00016758905 -0.00012321575 -0.00017167708 3.2713917e-05 0.00016112807 -0.0001541434
0.00016165235 -0.00013198543 -0.00016462982 0.0001559126 0.00016501654 0.00014014216 0.00016861457 -3.612771e-05
0.00016266128 -1.547063e-05 -0.00013947458 -2.8451892e-05 0.00016135618 -0.00015631507 0.00013327844 -0.00014792652
-0.00016711628 0.00015645025 -0.00016644706 0.00015457238 0.0001700704 -0.00015108907 -0.00015316803 0.00014825062
0.0001725605 -0.00015072868 0.00016848596 -0.00016083733 0.0001685618 -0.00015852241 -0.00016791446 0.00015936074
0.00016924726 -0.00014938354 -0.00016849212 0.00016629408 0.00017343443 -0.00017154604 -0.00015350807 0.00014991542
-0.00016608843 0.000155217 0.00017041825 -0.00015840141 -0.00015649441 0.00016370016 -0.00016683502 0.0001561582
0.00017239366 -0.00014131921 -0.00016396232 0.00015208173 -0.00016893767 0.00013852671 0.00016382308 -0.00015346782
0.00016707976 -0.0001693362 0.00016320868 -0.00014616847 0.00013039228 0.00013188212 -0.00016861064 0.000137982
0.0001688141 -0.00014490554 -0.00016633989 0.00016274513 0.00017234481 -0.0001545665 0.00016414253 -0.00013759299
-0.00016592279 0.00015872462 -0.00017001564 0.0001618611 -0.00016170125 0.0001484352 -0.00016747662 0.00015454073
-0.0001645553 0.00015787984 0.0001559855 -0.000108621905 -0.00017236813 0.00016282397 0.00017181318 -0.00016714887
0.00016521069 -0.00015141483 0.00017186544 -0.00016922338 0.0001719908 -0.00013500753 -0.00016739259 0.00017058279
-0.00016863988 0.00014662198 -0.00010331747 6.736959e-05 -0.00016724091 0.00016113228 0.00016890568 -0.00015374637
0.0001546761 0.00010020555 0.0001635598 -3.5599245e-05 -0.00016958376 0.00015903852 0.00016384415 -0.00015743103
-0.00016580083 0.00015060863 0.00016089842 -0.00014610586 -0.00014437857 -0.00013804749 -0.000169507 0.00016022142
0.00016823979 -0.00015065288 7.3152056e-05 2.5203488e-05 -0.00017179089 0.00014409526 0.0001670258 -0.00015785186
0.00016672451 5.981007e-06 0.00016830517 -0.00015574264 -0.00017229276 0.00016205851 -0.00016856856 0.00014773643
0.00014696449 -8.978964e-05 -0.00017055846 7.564009e-05 0.00013969491 -0.00014363106 -0.0001674745 0.00016120495
0.00017217877 -0.00016181455 0.00016663232 -0.0001606361 0.00017073672 -0.00016172678 -0.00016324033 0.00014500391
0.00016390004 -0.00015101323 -0.00017289018 0.00016837606 -0.00016695727 0.00015995317 -0.00016768558 -8.931536e-05
-0.00016942997 0.00014011482 0.0001695627 -0.00016893896 -0.0001542564 -3.3132976e-05 -0.00016699644 0.00016963208
0.00015883219 -0.00015749174 -0.00016440208 0.00013410248 -0.0001563539 0.00015325267 -0.00017204761 0.00016197392
-0.00016843376 0.00014475071 0.00017290591 -0.00017093687 -0.00016284871 0.00014743046 -0.00016791532 0.00014566541
-0.00016889408 0.00016461172 -0.00016580164 0.0001496055 -0.00016174641 -6.38315e-06 0.00015965356 -0.00015169552
0.00016444767 -0.00014665113 -0.00016843146 0.00014359667 0.00016572089 -0.00015239102 -0.0001683093 0.00015730194
00000000: 2896 30b9 1317 2739 2876 30b9 9e5c 2539
00000010: 3493 e6b8 937a 2639 c535 33b9 b8ab 3039
00000020: bcb6 34b9 b744 f1b7 42ac 3339 8a5a 21b9
00000030: dda6 33b9 6499 3139 e8a1 2c39 7b8f b738
00000040: f162 9738 e159 f538 d958 3639 d74b 02b9
00000050: 68f0 2bb9 d8fe d138 9105 2db9 9d46 2439
00000060: 4c72 1c39 786c cd37 1e3f 1fb9 a7e2 2339
00000070: f0aa 2eb9 2246 0f39 192c 34b9 4571 2337
00000080: 35bc 1fb9 facd 98b7 2788 3039 4eba 22b9
00000090: bd73 06b9 0bdb aeb8 955e 23b9 6e52 2d39
000000a0: 2779 2ab9 b2af 2039 f844 32b9 f0a1 1139
000000b0: 773d 27b9 a439 1a39 0ad2 30b9 fbed 2639
000000c0: f3d8 1db9 ccfc 0c39 d8ba 2fb9 7a33 01b9
000000d0: 3704 34b9 4d36 0938 7df4 2839 8ea1 21b9
000000e0: 3981 2939 9265 0ab9 7ba0 2cb9 787c 2339
000000f0: 4a08 2d39 20f3 1239 21ce 3039 d587 17b8
00000100: 0e90 2a39 edc6 81b7 ec3f 12b9 f9ab eeb7
00000110: b831 2939 82e8 23b9 a9c0 0b39 b91c 1bb9
00000120: ef3b 2fb9 cb0c 2439 4b88 2eb9 b514 2239
00000130: ed54 3239 aa6d 1eb9 bb9b 20b9 b973 1b39
00000140: 5bf1 3439 ec0c 1eb9 9bab 3039 71a6 28b9
00000150: f7bf 3039 0939 26b9 3212 30b9 131a 2739
00000160: f777 3139 d7a3 1cb9 42ad 30b9 3a5f 2e39
00000170: f3db 3539 0ae1 33b9 02f7 20b9 9d32 1d39
00000180: 0628 2eb9 bfc1 2239 4db2 3239 8e18 26b9
00000190: a618 24b9 eda6 2b39 6ff0 2eb9 66be 2339
000001a0: 92c4 3439 162f 14b9 4ded 2bb9 2178 1f39
000001b0: dc24 31b9 7b41 1139 ecc7 2b39 34ec 20b9
000001c0: 2232 2f39 d78f 31b9 ff22 2b39 cd44 19b9
000001d0: e9b9 0839 d649 0a39 13cd 30b9 43af 1039
000001e0: b103 3139 c9f1 17b9 866b 2eb9 90a6 2a39
000001f0: 75b7 3439 2113 22b9 ad1d 2c39 d646 10b9
00000200: 8ffb 2db9 516f 2639 3a46 32b9 42b9 2939
00000210: 598e 29b9 45a5 1b39 aa9c 2fb9 360c 2239
00000220: 7a8c 2cb9 8c8c 2539 0a90 2339 f1cb e3b8
00000230: b8bd 34b9 babb 2a39 c028 3439 af44 2fb9
00000240: 683c 2d39 1cc5 1eb9 c736 3439 8e71 31b9
00000250: 6e58 3439 cf90 0db9 1b86 2fb9 78de 3239
00000260: ecd4 30b9 8abe 1939 25ac d8b8 c648 8d38
00000270: 645d 2fb9 9ef5 2839 461c 3139 fa36 21b9
00000280: 8d30 2239 7225 d238 4081 2b39 6650 15b8
00000290: 4bd2 31b9 94c3 2639 94cd 2b39 1214 25b9
000002a0: d2da 2db9 b2ec 1d39 d7b6 2839 fe33 19b9
000002b0: 5464 17b9 d7c0 10b9 b0bd 31b9 1c01 2839
000002c0: 8669 3039 93f8 1db9 3669 9938 146c d337
000002d0: c422 34b9 4718 1739 a623 2f39 0985 25b9
000002e0: c5d2 2e39 75b0 c836 137b 3039 d94e 23b9
000002f0: 7ca9 34b9 40ee 2939 c7c1 30b9 b2e9 1a39
00000300: 7b1a 1a39 724d bcb8 f0d7 32b9 f7a0 9e38
00000310: 117b 1239 ab9b 16b9 189c 2fb9 2009 2939
00000320: e38a 3439 c3ac 29b9 06ba 2e39 6d70 28b9
00000330: ca07 3339 3495 29b9 7e2b 2bb9 310c 1839
00000340: 95dc 2b39 4e59 1eb9 db49 35b9 1b8e 3039
00000350: 4011 2fb9 1ab9 2739 c1d4 2fb9 d24e bbb8
00000360: 03a9 31b9 c9eb 1239 a4cc 3139 3525 31b9
00000370: e3bf 21b9 43f8 0ab8 c41b 2fb9 44df 3139
00000380: 318c 2639 5e24 25b9 5963 2cb9 dc9d 0c39
00000390: eef2 23b9 73b2 2039 ae67 34b9 8bd7 2939
000003a0: 989d 30b9 39c8 1739 144e 3539 843d 33b9
000003b0: 5ec2 2ab9 9097 1a39 6d12 30b9 c3bd 1839
000003c0: 2919 31b9 9f9b 2c39 0adb 2db9 6cdf 1c39
000003d0: 799a 29b9 d72e d6b6 ad68 2739 7510 1fb9
000003e0: 966f 2c39 5dc6 19b9 fa9c 30b9 7092 1639
000003f0: 5dc5 2d39 27cb 1fb9 2f7c 30b9 6bf1 2439

base_model.model.model.layers.0.self_attn.v_proj.lora_A.weight f4 [2, 1152]
0.027730258 -0.019915804 -0.018683655 -0.021859888 -0.01772287 0.015936134 0.019254943 -0.005799896
0.02166541 0.018504048 -0.0014840988 -0.017086715 -0.020697823 -0.0244063 0.0264106 -0.025615372
0.01134512 -0.010357022 0.021332614 -0.014933183 0.027659506 0.016263254 -0.011085696 -0.026786596
-0.01804401 -0.009092349 0.023002982 -0.02206085 0.010727222 0.02661852 0.017467871 0.017796133
-0.022959141 -0.013074706 -0.028050127 0.00487016 0.019544665 0.013563022 -0.0069434033 -0.023970509
-0.024799064 -0.020918632 -0.0032860558 -0.009595817 -0.013787855 -0.024891902 0.0032869466 0.019996958
0.0035460817 -0.02266646 0.0052690534 -0.015249423 0.01096898 0.026409397 -0.016628174 -0.021437142
0.012232658 -0.023162793 0.02922653 0.022663482 0.0095576225 -0.02431015 0.004637914 -0.020095592
0.0015968623 -0.0088229375 0.0045309067 -0.0029777212 0.00615191 -0.018932546 -0.016886638 0.026706338
-0.028682804 -0.019522976 -0.010759705 0.024136785 -0.0265254 0.018135551 0.010256288 0.012037168
-0.022149455 0.0119649405 0.0046206466 0.02149268 0.004807635 -0.019923769 0.012242075 -0.020165542
-0.019879976 -0.013422213 -0.013047485 0.008467034 0.02544636 0.017000876 -0.027184084 -0.017504495
0.0056669633 0.024529915 -0.017318567 -0.028228026 0.029564774 0.010906004 0.013158506 -0.0042353505
0.018748151 -0.011829937 -0.027072296 0.0036778082 0.006160991 -0.0062368168 -0.022738542 -0.0053291423
-0.013154337 -0.011501549 0.018323215 -0.011958855 0.022332918 -0.00030460837 0.01611085 -0.009116415
-0.00044106226 -0.00014335875 0.025580402 0.017381348 0.012499503 -0.01245147 0.014747763 -0.004982638
0.018944412 -0.0101855425 0.022516342 0.0014511021 0.0032132904 -0.0017122579 0.021476416 -0.014108858
0.0106106615 -0.029123325 0.023059143 0.017893141 -0.0095297815 -0.011956816 0.022152066 0.0254496
-0.0044674957 0.022388157 -0.002123514 0.022028863 -0.00085869426 0.022175018 -0.0064207143 0.02512147
-0.00905371 0.012706371 0.022230089 -0.017234042 0.01625643 0.00016942369 -0.003797296 0.02602296
0.020215014 -0.00086980767 0.023085825 -0.02401471 -0.0032216704 9.857315e-05 -0.015684918 -0.007708871
-0.012779433 -0.01746933 0.024546338 0.012014537 -0.026847461 0.0043742503 -0.0013012352 -0.024456345
-0.0040174117 0.022770794 -0.024527753 0.008168093 0.016183913 0.026968239 0.00821398 0.00088192953
-0.026834523 -0.010652093 0.0031488258 -0.014522624 0.018345209 0.02739816 0.003953296 0.0018802945
0.0034778493 0.02058705 -0.0071660867 0.011065089 -0.015532148 0.014829765 0.024441557 -0.0047729528
0.025624985 -0.009530055 0.0013483507 -0.006786816 -0.009355048 -0.002542206 -0.027529355 0.022458704
-0.029390778 0.024431596 -0.0079062665 0.017789144 -0.000885617 0.014372838 0.0141961435 -0.013751024
-0.022898702 0.014246636 0.024846485 -0.0265208 0.009578077 -0.003712689 0.020941738 -0.015967283
0.009379897 -0.017444456 0.02759569 0.024504228 0.027584702 -0.027011445 0.027230164 -2.7810573e-05
0.024990307 0.029218134 0.002452006 0.020520678 0.028536942 -0.016726201 0.025421064 -0.020327508
0.0033341576 -0.01685169 0.010588184 0.018154176 0.029303972 -0.016718127 -0.009233041 -0.017093914
-0.021763515 -0.018122345 0.029024044 -0.0057817274 0.01782001 -0.02477559 -0.017224992 0.028338639
00000000: 912a e33c 7826 a3bc 770e 99bc 8213 b3bc
00000010: 8d2f 91bc 7f8c 823c 8bbc 9d3c 0e0d bebb
00000020: a87b b13c cd95 973c 1886 c2ba 70f9 8bbc
00000030: 7b8e a9bc b9ef c7bc 0b5b d83c 54d7 d1bc
00000040: e2e0 393c 80b0 29bc bcc1 ae3c 4faa 74bc
00000050: 3096 e23c 843a 853c c7a0 35bc 906f dbbc
00000060: 08d1 93bc 13f8 14bc c070 bc3c f5b8 b4bc
00000070: 3bc1 2f3c 150f da3c c818 8f3c 32c9 913c
00000080: cf14 bcbc 4b37 56bc 61c9 e5bc dd95 9f3b
00000090: 221c a03c 7037 5e3c 7d85 e3bb cd5d c4bc
000000a0: 6827 cbbc 8d5d abbc de5a 57bb c637 1dbc
000000b0: 75e6 61bc 1aea cbbc d069 573b a9d0 a33c
000000c0: 6165 683b 03af b9bc 06a8 ac3b b7d8 79bc
000000d0: 3db7 333c 8558 d83c cf37 88bc f29c afbc
000000e0: 7d6b 483c e6bf bdbc 7a6c ef3c c4a8 b93c
000000f0: 9397 1c3c 1426 c7bc a4f9 973b 839f a4bc
00000100: cf4d d13a 158e 10bc 0078 943b df25 43bb
00000110: f695 c93b 6d18 9bbc d955 8abc 40c7 da3c
00000120: 33f8 eabc a6ee 9fbc 7949 30bc 82ba c53c
00000130: cc4b d9bc 0291 943c fd09 283c 8b37 453c
00000140: c672 b5bc 9908 443c cb68 973b 6b11 b03c
00000150: 5e89 9d3b 2c37 a3bc fc92 483c 3532 a5bc
00000160: 55db a2bc d7e8 5bbc 1ec5 55bc 51b9 0a3c
00000170: e374 d03c 6c45 8b3c 28b1 debc 9665 8fbc
00000180: efb1 b93b f6f2 c83c abdf 8dbc 763e e7bc
00000190: d331 f23c 19af 323c c696 573c b2c8 8abb
000001a0: b995 993c 5ad2 41bc b8c6 ddbc 6207 713b
000001b0: 23e2 c93b 365e ccbb 2e46 babc 16a0 aebb
000001c0: 4a85 57bc fe70 3cbc 911a 963c 13ef 43bc
000001d0: 86f3 b63c d8b3 9fb9 e7fa 833c 045d 15bc
000001e0: 603e e7b9 9252 16b9 fe8d d13c 5463 8e3c
000001f0: b7ca 4c3c 4001 4cbc 9aa0 713c 6645 a3bb
00000200: 5031 9b3c 43e1 26bc 3174 b83c e832 be3a
00000210: 1196 523b d76d e0ba 4fef af3c d728 67bc
00000220: 57d8 2d3c 0a94 eebc 87e6 bc3c a394 923c
00000230: cd22 1cbc 85e6 43bc 4078 b53c ae7b d03c
00000240: 1264 92bb 5e67 b73c a72a 0bbb e075 b43c
00000250: ff19 61ba 62a8 b53c db64 d2bb 8bcb cd3c
00000260: 0356 14bc 622e 503c e01b b63c 682e 8dbc
00000270: 342c 853c 53a7 3139 0edc 78bb 1a2e d53c
00000280: f599 a53c ce03 64ba 7c1e bd3c 7fba c4bc
00000290: a922 53bb 0fb9 ce38 a87d 80bc b29a fcbb
000002a0: d460 51bc d71b 8fbc 6715 c93c 9fd8 443c
000002b0: 35ef dbbc df55 8f3b 358e aaba ac58 c8bc
000002c0: 7ea4 83bb d189 ba3c 6dee c8bc 77d3 053c
000002d0: 2094 843c 7fec dc3c ee93 063c 4a31 673a
000002e0: 13d4 dbbc 1e86 2ebc 885c 4e3b 4df0 6dbc
000002f0: b148 963c 1b72 e03c a78a 813b 3774 f63a
00000300: a1ec 633b 2ca6 a83c 7ed1 eabb 594a 353c
00000310: 8d7a 7ebc 8bf8 723c a939 c83c 6e66 9cbb
00000320: 7deb d13c f323 1cbc 24bb b03a f063 debb
00000330: ea45 19bc 249b 26bb 3e85 e1bc 51fb b73c
00000340: eec4 f0bc c524 c83c 4989 01bc 8aba 913c
00000350: c028 68ba 0d7c 6b3c f196 683c fa4b 61bc
00000360: 0f96 bbbc b96a 693c db8a cb3c 2642 d9bc
00000370: 5eed 1c3c 9650 73bb 028e ab3c d2cd 82bc
00000380: 24ae 193c ade7 8ebc 5b10 e23c 17bd c83c
00000390: 50f9 e13c 1b47 ddbc cb11 df3c c04a e9b7
000003a0: 79b8 cc3c de5a ef3c d6b1 203b fb1a a83c
000003b0: 4ec6 e93c 6305 89bc d63f d03c e085 a6bc
000003c0: e281 5a3b 8e0c 8abc 107a 2d3c 11b8 943c
000003d0: e20e f03c 74f4 88bc 2e46 17bc 8908 8cbc
000003e0: 6649 b2bc 5075 94bc d5c3 ed3c a574 bdbb
000003f0: 45fb 913c 2ef6 cabc 6d1b 8dbc 6f26 e83c

base_model.model.model.layers.0.self_attn.v_proj.lora_B.weight f4 [256, 2]
0.00011080973 0.00016877025 -2.0639915e-05 -8.9201574e-05 -0.00016787539 7.158337e-05 0.00014061072 -0.00014396806
0.00013637712 2.3515286e-06 0.00015829584 -0.00016485326 0.00012989114 0.00015214148 -0.00017166598 0.00015927193
-1.2522218e-05 0.00010392563 0.00012128443 -0.00016417135 -9.032382e-05 0.00017331835 -8.55522e-05 0.00014251487
-0.0001426482 0.00016882416 0.00017357257 -0.00017109964 0.00013480925 0.00015663076 -6.67986e-05 -0.00010109955
-9.931566e-06 -0.00015558634 0.0001380682 -5.484618e-05 0.00012661665 -0.00016405576 0.00012332253 -0.00015803556
0.00016102318 -0.0001312345 -0.000106650274 -0.0001659872 6.7368535e-05 -0.00014464094 0.00013119743 -0.00017454602
0.00016829411 -0.00017072265 -0.0001741574 0.00016884922 0.00015661132 1.3260568e-05 -0.00017390183 0.00016856697
0.00016201299 -0.00016865788 0.0001460453 6.2644765e-05 0.00016616739 -0.00017433683 0.0001660219 -0.00017162507
-2.5111967e-05 0.00016471212 0.00016770342 -0.00016776218 0.00017268809 -0.00016663536 -0.00016215893 0.00015790475
-0.00016348487 0.0001513693 -0.0001675806 0.00016844651 -0.00016185167 0.00017453692 -6.554223e-05 0.00010597001
-0.00016844229 0.0001283474 0.00016298571 -0.00015230846 -0.00014517109 -0.00014968557 3.5794583e-05 -0.0001284236
0.00014627147 7.4286545e-05 1.0083938e-06 -0.00016318544 -0.00014963836 0.00016750045 -0.00017514988 0.00017189157
0.0001242415 -5.1488765e-05 2.0938227e-05 -0.00013974715 0.00013563572 -0.00015875867 -0.0001509386 0.00013227716
0.00016256011 -0.00013910989 -0.0001687796 -0.00010068031 -0.00013218397 -5.7134945e-05 -2.692426e-05 -6.634409e-05
-0.00014964264 -0.0001750514 7.136622e-05 -7.36064e-05 -0.0001299425 0.00016523903 -0.00015602329 0.00016273645
0.00017085507 -0.00014267066 -0.00015254204 0.00013468508 3.8884795e-05 -0.0001390777 -0.00014650874 -0.00013715349
0.00017411866 -4.5199144e-05 -0.00015181216 0.0001707554 0.00016728128 0.00012948811 0.00013929528 -0.00011499871
-0.00012587025 0.00014129531 -1.6657195e-05 0.00016084481 -8.513169e-05 0.00017089277 -0.00017196577 0.0001377141
0.000114563 -0.00015298785 0.00015303932 7.740684e-05 -9.593376e-05 -3.7318645e-05 -4.7295245e-05 -1.2883744e-05
0.000105376916 0.00017320245 -0.00015263176 0.00014099944 5.168389e-05 0.00013595854 9.601601e-05 -0.00013553108
0.00016562341 -4.6213023e-05 -2.544767e-05 7.873368e-06 0.0001301024 -0.00016176359 0.00015621155 -0.00017335698
3.2762997e-05 -0.00014940079 -0.00016548207 0.00016790643 -0.0001403928 0.00017516928 -0.00016223293 6.1483115e-05
0.00017061066 -1.1852772e-05 -0.0001347557 0.00012083539 0.00017329457 -0.00017420662 0.00017235434 -0.00012197443
0.000112529924 -0.0001069324 -0.00015467424 0.00016476479 0.00013400249 -0.00016479629 -0.00016226758 0.00016809943
0.00017242887 0.00015335453 -0.0001613263 0.00017211717 0.00016335909 0.000103371516 0.00014653461 3.4437566e-05
0.00016670024 -0.00014782468 -0.00011145979 0.00016107754 -0.00015621584 0.00015264495 -0.0001585524 0.00015544675
0.00016764195 -4.302998e-05 -0.00017378388 0.00017429187 -3.4508597e-05 0.00016904614 -0.00015074125 0.00016963934
0.00015331242 6.920911e-05 -1.61072e-05 -5.451382e-05 -9.326108e-06 9.7337215e-05 -0.00014979191 0.00017119425
0.00014530701 -3.068733e-05 -0.00017327898 -0.00016646327 -0.00012387162 -8.3955754e-05 0.0001662325 -0.00016300364
9.5232834e-05 0.00016305182 0.00015144561 -0.00016101277 0.00013460034 0.00010552459 6.391093e-05 0.00017143472
0.00017304023 0.00015432558 -0.00016007322 -0.00017200217 -0.00013253694 0.00016108894 -0.00016170414 0.00013874948
0.00016803466 1.4684825e-05 1.2024604e-05 -0.00013379019 -0.00011940548 0.00017258766 -0.00017096532 -0.00015955711
00000000: 8562 e838 ebf7 3039 e123 adb7 bb11 bbb8
00000010: b507 30b9 071f 9638 e770 1339 22f6 16b9
00000020: 7400 0f39 f4ce 1d36 37fc 2539 76dc 2cb9
00000030: 6333 0839 2b88 1f39 3c01 34b9 3c02 2739
00000040: 8416 52b7 a6f2 d938 155a fe38 6925 2cb9
00000050: 3b6c bdb8 cabc 3539 7d6a b3b8 0b70 1539
00000060: d693 15b9 6406 3139 0801 3639 3669 33b9
00000070: 955b 0d39 403d 2439 3a16 8cb8 6805 d4b8
00000080: c09f 26b7 e424 23b9 66c6 1039 a30a 66b8
00000090: 66c4 0439 6206 2cb9 2450 0139 59b6 25b9
000000a0: 55d8 2839 fe9b 09b9 6ea9 dfb8 da0c 2eb9
000000b0: 3548 8d38 c2aa 17b9 0b92 0939 5706 37b9
000000c0: 1b78 3039 0304 33b9 059e 36b9 1e0d 3139
000000d0: 0838 2439 b579 5e37 6b59 36b9 5ac1 3039
000000e0: 08e2 2939 c1d9 30b9 bd23 1939 2760 8338
000000f0: 383d 2e39 30ce 36b9 2a16 2e39 41f6 33b9
00000100: 8aa7 d2b7 93b6 2c39 8bd9 2f39 51e9 2fb9
00000110: 9b13 3539 d7ba 2eb9 3509 2ab9 3c93 2539
00000120: 236d 2bb9 e3b8 1e39 93b8 2fb9 04a1 3039
00000130: bab6 29b9 e603 3739 b773 89b8 373c de38
00000140: e29f 30b9 fe94 0639 25e7 2a39 feb4 1fb9
00000150: 1139 18b9 eaf4 1cb9 2422 1638 73a9 06b9
00000160: 7360 1939 49ca 9b38 2658 8735 c21c 2bb9
00000170: 3ee8 1cb9 0fa3 2f39 70a8 37b9 cb3d 3439
00000180: d346 0239 a4f5 57b8 80a4 af37 1789 12b9
00000190: 7039 0e39 7578 26b9 4645 1eb9 e1b3 0a39
000001a0: e674 2a39 07de 11b9 6efa 30b9 5424 d3b8
000001b0: dd9a 0ab9 2ea4 6fb8 68db e1b7 3622 8bb8
000001c0: 64e9 1cb9 018e 37b9 73aa 9538 235d 9ab8
000001d0: 2d41 08b9 0444 2d39 2f9a 23b9 3ca4 2a39
000001e0: 8f27 3339 dd99 15b9 b1f3 1fb9 403a 0d39
000001f0: 3b18 2338 63d5 11b9 24a0 19b9 dcd0 0fb9
00000200: 9f93 3639 3694 3db8 c42f 1fb9 ce0c 3339
00000210: 3a68 2f39 33c7 0739 cb0f 1239 762b f1b8
00000220: 0afc 03b9 ac28 1439 0ebb 8bb7 73a8 2839
00000230: ba88 b2b8 ae31 3339 b651 34b9 5967 1039
00000240: 8b41 f038 5d6b 20b9 2e79 2039 7b55 a238
00000250: 0c30 c9b8 9786 1cb8 e25e 46b8 4227 58b7
00000260: cdfd dc38 ae9d 3539 c70b 20b9 40d9 1339
00000270: 28c7 5838 1890 0e39 345c c938 591d 0eb9
00000280: 32ab 2d39 dbd4 41b8 7578 d5b7 dc17 0437
00000290: 196c 0839 159f 29b9 b8cc 2339 29c7 35b9
000002a0: 006b 0938 78a8 1cb9 4185 2db9 0a10 3039
000002b0: 6836 13b9 a5ad 3739 121d 2ab9 7ff0 8038
000002c0: f3e5 3239 45db 46b7 354d 0db9 0269 fd38
000002d0: 68b6 3539 3cab 36b9 04ba 3439 86cc ffb8
000002e0: 0bfe eb38 e540 e0b8 0d30 22b9 b6c4 2c39
000002f0: 0583 0c39 2bcd 2cb9 5f26 2ab9 d943 3039
00000300: 06ce 3439 cbcd 2039 b329 29b9 5a7a 3439
00000310: 5f4b 2b39 29c9 d838 16a7 1939 0e71 1038
00000320: 41cc 2e39 6301 1bb9 85bf e9b8 ece6 2839
00000330: dfcd 23b9 510f 2039 1641 26b9 6bff 2239
00000340: 0bc9 2f39 177b 34b8 c139 36b9 1ec2 3639
00000350: 53bd 10b8 fa41 3139 4c10 1eb9 37e1 3139
00000360: 7dc2 2039 5c24 9138 f31d 87b7 c5a5 64b8
00000370: 5477 1cb7 8521 cc38 7611 1db9 9b82 3339
00000380: 8e5d 1839 45b6 00b8 39b2 35b9 a58c 2eb9
00000390: 89e3 01b9 6711 b0b8 b24e 2e39 f5eb 2ab9
000003a0: bdb7 c738 e4f8 2a39 5fcd 1e39 89d5 28b9
000003b0: 8123 0d39 154d dd38 eb07 8638 28c3 3339
000003c0: 2272 3539 75d2 2139 54d9 27b9 7b5b 34b9
000003d0: 9df9 0ab9 fce9 2839 208f 29b9 487d 1139
000003e0: 7632 3039 d85e 7637 48bd 4937 084a 0cb9
000003f0: 5469 fab8 a6f8 3439 2745 33b9 c94e 27b9

base_model.model.model.layers.1.self_attn.q_proj.lora_A.weight f4 [2, 1152]
-0.0058508455 0.0062125647 -0.013238029 -0.015135224 -0.00080555107 -0.025887841 -0.024854837 0.0050861533
-0.02229901 0.015222329 0.009931124 -0.017063124 -0.022295441 -0.010020821 -0.006977799 0.007158985
0.004778204 0.009154389 0.02475476 0.021928139 0.004654895 -0.0107701365 0.023182815 -0.0018131771
0.01822438 -0.0021960367 0.0032364023 0.019674225 -0.0039294553 0.011378431 -0.0058348384 -0.014548403
0.00957912 0.0007017504 -0.0029562062 -0.01803326 -0.02793625 -0.02816984 0.00571469 0.028155038
-0.011080772 -0.0007804503 0.00037478431 0.00064640783 0.02181611 0.01313378 -0.0011654226 0.0013935482
-0.019479856 0.018844796 0.017325755 0.017342634 0.025423853 0.022894967 -0.010123026 0.0149976425
0.026714785 -0.018226096 -0.016560446 0.019605488 -0.011931497 0.019863738 -0.0069252173 -0.0076032067
-0.011767713 0.025948454 -0.008405741 -0.027147876 0.008228905 0.004025348 -0.025291936 -0.0025904907
-0.0005390802 -0.014636515 -0.0022932435 0.016138257 -0.009136902 -0.018621577 0.02672649 -0.012145976
0.016227867 0.013014726 -0.005461075 -0.017869953 0.017999351 -0.028880754 0.012948829 -0.008225347
0.0063291006 0.029111851 -0.021082122 0.006547348 -0.004848991 0.019082805 0.018195491 0.0063883117
-0.0064932145 0.017094633 -0.02037362 -0.026994012 0.011436647 -0.020531064 0.00423738 -0.019232519
-0.025364675 -0.019813582 -0.024939371 -0.029366422 0.02632046 0.015913213 0.02133733 0.009590682
0.018266615 0.010528756 -0.0036681546 -0.0035011203 0.018320844 -0.022773232 -0.02398387 -0.012503066
-0.025001904 0.018007226 -0.018478848 0.019913616 0.011483821 0.009897711 -0.0072123613 -0.02589318
0.017851457 -0.005521328 0.0016883941 0.006282272 0.0006782878 -0.008615059 -0.010861623 -0.00415208
0.005060294 -0.020767417 -0.018711438 0.02726846 -0.02286775 -0.010154252 0.0037919849 -0.0022068818
-0.0076804277 -0.007604706 0.0060738395 0.011234544 0.0010544184 0.02010465 0.016879268 -0.009685674
0.016691104 0.005660196 -0.008772538 -0.023004262 0.011666685 0.01629154 -0.0047779134 -0.029033793
-0.0054444005 0.0097755445 0.023568846 0.0014391642 0.02085512 -0.021009011 -0.029009182 -0.024493018
-0.021869723 0.0057733697 -0.008078697 -0.020089144 0.00999684 -0.019117145 0.009603172 -0.013094068
-0.012235145 -0.026147576 -0.006770616 0.0043322975 0.01936109 0.02835096 0.022341074 0.007976608
-0.008557071 0.013531778 0.013208071 0.027491715 0.004607773 0.026352203 0.005605291 0.008149501
0.010036099 0.0021523586 -0.021019273 0.02653782 -0.004341106 -0.0062738885 -0.0018933534 -0.01927401
-0.0018850113 0.0033573087 0.0032296143 -0.011577311 -0.027901739 -0.0107539 -0.017836956 0.003417734
-0.008049948 0.004688616 0.014700984 0.019595854 0.019959664 0.016154394 -0.0118675865 0.011333139
-0.010554517 0.004698633 0.017255772 -0.0029076417 0.01387472 -0.016931534 -0.0021281422 0.0050208233
0.015285759 -0.008975189 0.016024478 0.013842476 -0.0017237867 -0.013557916 0.012200709 -0.013148594
-0.028848775 0.02144764 0.02285877 -0.00697412 0.02818737 -0.022066107 0.024849331 0.026775178
0.0014320692 0.011065606 0.024435496 0.0129427165 0.0071344767 0.019472783 -0.015669653 -0.011349987
0.007485859 -0.0049686776 0.006133462 0.0013893192 0.0012450623 0.027808456 -0.013660357 -0.024816299
00000000: 73b8 bfbb c592 cb3b 51e4 58bc bbf9 77bc
00000010: 9e2b 53ba bd12 d4bc 5f9c cbbc bfa9 a63b
00000020: 6aac b6bc 1367 793c 27b6 223c f7c7 8bbc
00000030: eea4 b6bc 5f2e 24bc 05a6 e4bb eb95 ea3b
00000040: 7b92 9c3b 4afc 153c 7fca ca3c a4a2 b33c
00000050: 1788 983b 3a75 30bc e3e9 bd3c 21a8 edba
00000060: 4c4b 953c 62eb 0fbb d219 543b d72b a13c
00000070: a9c2 80bb 996c 3a3c 2c32 bfbb 6d5c 6ebc
00000080: bef1 1c3c acf5 373a e9bc 41bb 7dba 93bc
00000090: 90da e4bc 70c4 e6bc 4b42 bb3b 65a5 e63c
000000a0: 208c 35bc 2297 4cba b37e c439 b273 293a
000000b0: b3b7 b23c 112f 573c 18c1 98ba b8a7 b63a
000000c0: 3894 9fbc 6760 9a3c beee 8d3c 2412 8e3c
000000d0: af45 d03c 3a8e bb3c 0cdb 25bc acb8 753c
000000e0: f7d8 da3c e54e 95bc c6a9 87bc b09b a03c
000000f0: 537c 43bc 47b9 a23c efec e2bb 5224 f9bb
00000100: 5ecd 40bc da91 d43c 3cb8 09bc 3965 debc
00000110: 87d2 063c 11e7 833b 0931 cfbc 39c5 29bb
00000120: 0f51 0dba fecd 6fbc 3e4a 16bb 6134 843c
00000130: f2b2 15bc 478c 98bc 83f1 da3c eaff 46bc
00000140: 4ef0 843c b83b 553c d1f2 b2bb 0264 92bc
00000150: 6073 933c 5597 ecbc 5327 543c 9bc3 06bc
00000160: 5864 cf3b fa7b ee3c 6ab4 acbc 238b d63b
00000170: 49e4 9ebb 8b53 9c3c b60e 953c 0b55 d13b
00000180: 08c5 d4bb 0b0a 8c3c 94e6 a6bc 8c22 ddbc
00000190: c660 3b3c c330 a8bc b8d9 8a3b 848d 9dbc
000001a0: 94c9 cfbc 1850 a2bc a74d ccbc da91 f0bc
000001b0: 019e d73c 6d5c 823c a0cb ae3c 3c22 1d3c
000001c0: dea3 953c ce80 2c3c 6c65 70bb 0d73 65bb
000001d0: 9815 963c ee8e babc d279 c4bc a9d9 4cbc
000001e0: cbd0 ccbc e483 933c f460 97bc e121 a33c
000001f0: a326 3c3c 022a 223c ac55 ecbb ef1d d4bc
00000200: 383d 923c 42ec b4bb 1b4d dd3a 84db cd3b
00000210: 20cf 313a 2d26 0dbc f3f4 31bc 2c0e 88bb
00000220: d3d0 a53b 6e20 aabc bb48 99bc 1b62 df3c
00000230: 2655 bbbc 055e 26bc f382 783b 55a1 10bb
00000240: 19ac fbbb e630 f9bb 0f07 c73b 1811 383c
00000250: 6934 8a3a 82b2 a43c 6446 8a3c a9b0 1ebc
00000260: c8bb 883c 2a79 b93b b1ba 0fbc 6f73 bcbc
00000270: a025 3f3c d675 853c 0b90 9cbb 47d8 edbc
00000280: f166 b2bb 9b29 203c 7413 c13c 56a2 bc3a
00000290: 5bd8 aa3c 171b acbc aaa4 edbc 95a5 c8bc
000002a0: 2228 b3bc 892e bd3b 835c 04bc fd91 a4bc
000002b0: c9c9 233c 8f9b 9cbc 9f56 1d3c 8088 56bc
000002c0: eb75 48bc 7133 d6bc 0bdc ddbb f2f5 8d3b
000002d0: 269b 9e3c 4640 e83c a104 b73c 52b0 023c
000002e0: f532 0cbc 64b4 5d3c aa66 583c 4e36 e13c
000002f0: cdfc 963b 93e0 d73c 97ac b73b 7c85 053c
00000300: 736e 243c 960e 0d3b 9c30 acbc d865 d93c
00000310: d63f 8ebb 3195 cdbb 662a f8ba 87e4 9dbc
00000320: 7c12 f7ba 4b06 5c3b f0a7 533b c3ae 3dbc
00000330: 3092 e4bc 2031 30bc cf1e 92bc 10fc 5f3b
00000340: eee3 03bc f6a2 993b 65dc 703c 7c87 a03c
00000350: 7382 a33c 3856 843c 4470 42bc a1ae 393c
00000360: daec 2cbc fef6 993b fa5b 8d3c 228e 3ebb
00000370: cb52 633c 00b4 8abc 4d78 0bbb b885 a43b
00000380: 1f71 7a3c ac0c 13bc c445 833c 8dcb 623c
00000390: aff0 e1ba 0522 5ebc 7ce5 473c 336d 57bc
000003a0: 4454 ecbc f6b2 af3c 5142 bb3c 2987 e4bb
000003b0: 33e9 e63c fbc3 b4bc d390 cb3c 9e57 db3c
000003c0: 45b4 bb3a 844c 353c f32c c83c b00d 543c
000003d0: 54c8 e93b 6385 9f3c a55d 80bc 4cf5 39bc
000003e0: f04b f53b 4ad0 a2bb 35fb c83b d119 b63a
000003f0: 5c31 a33a 8fce e33c b1cf 5fbc 8d4b cbbc

base_model.model.model.layers.1.self_attn.q_proj.lora_B.weight f4 [1024, 2]
0.00011520915 0.00010866467 -0.0001561713 -8.744808e-05 0.00016660929 5.456419e-05 -6.6015156e-05 -4.0062827e-05
6.0175803e-06 9.243636e-05 2.32441e-05 0.000118228294 -8.434471e-06 0.00015306738 -5.8110985e-05 -7.0703245e-05
4.3986984e-05 2.678915e-05 0.00017176144 -0.00015019947 9.202571e-05 8.3643e-05 0.00016011244 6.777953e-05
0.00012321679 1.9107345e-05 -0.00017107575 0.00014889185 -0.0001418146 0.00014098357 2.5308387e-05 -0.0001269192
-0.00012877499 -2.763684e-05 -1.4856373e-06 -7.743909e-05 -0.000111780384 2.563298e-06 0.00015113059 -0.00017069445
-0.00016066333 0.00012887534 9.804903e-05 3.2668609e-06 -0.00013775667 -0.00012417542 0.00015019544 2.2188606e-05
0.00015555393 0.00013828756 -0.0001359327 -4.3941276e-05 -7.002623e-05 0.00014936586 0.00010721205 -2.4881592e-07
-0.000105876585 1.5715743e-05 -1.0936987e-05 -0.00010704397 0.0001469824 -0.00013443913 0.00014960379 5.572726e-05
-0.0001409352 -3.5336332e-05 0.00012103442 -4.115591e-06 0.00016732345 5.9338297e-05 -4.1528147e-05 1.4799871e-05
-8.8465495e-06 -7.37288e-05 -0.00016258692 -2.7588789e-05 -0.0001425447 -7.780259e-05 -6.0181366e-05 0.00014054401
0.00012059287 2.704033e-06 4.8257343e-06 -5.3408516e-05 7.7090284e-05 -2.7112157e-05 0.00014350397 -6.294673e-05
0.00016310115 -2.4036966e-05 0.00010805242 -1.8373275e-06 0.00015403473 0.000111551664 0.00014194837 9.27257e-05
-7.739733e-05 -7.749399e-06 -7.226469e-05 0.00013338609 9.3703566e-05 0.0001423188 0.00013734915 6.4387523e-06
-0.00012370944 -0.00012971743 -0.00015669428 0.00016783764 2.3039825e-06 0.00010737222 -0.00012892294 8.529034e-06
4.285508e-05 -0.00013881194 1.7149106e-05 7.924085e-05 0.00011120685 0.00013677552 0.000112403846 -0.0001194207
0.00015339711 -8.360431e-05 -4.5281515e-05 -3.679238e-07 -0.00013460242 4.206496e-05 -1.1744622e-05 -2.2908576e-05
0.00014339673 1.4018204e-05 9.213454e-05 -2.3605686e-05 -5.776557e-05 -8.590498e-05 0.00011468329 -4.563418e-05
1.6252792e-05 -0.00011273928 -0.00011687402 2.1355072e-05 6.749305e-05 -7.736684e-05 -0.00017102534 0.00013588554
3.138674e-05 -7.227124e-06 0.00015024054 -3.5789675e-05 6.606763e-05 -0.00017038858 -9.567889e-05 0.00014802755
-2.2722237e-05 4.277933e-05 0.00014404842 -2.6966516e-05 5.9747e-05 -0.00013936224 9.968733e-05 -6.525771e-05
-0.00011967579 0.00013091555 0.00013429229 0.00013412004 -5.908413e-05 -7.5813674e-05 -3.085891e-05 3.0418516e-05
6.571499e-05 0.00015290789 0.00013303524 -5.9707487e-05 4.2726565e-06 4.56493e-05 -0.00012225367 1.5153351e-05
3.0214891e-05 9.585623e-05 1.1950311e-05 -0.0001428631 4.485441e-06 -0.00017371563 0.00016222853 -0.00011490474
0.00016334184 0.00010988872 -0.00012916033 5.8121586e-05 0.0001742598 -2.5033129e-05 -0.000114892144 9.084901e-05
4.6022004e-05 -0.00011637469 -7.981429e-06 -0.00013993887 -0.00012081124 -0.00013084777 -0.00016207166 -0.00012065126
0.00011658992 -0.00011381191 -5.780531e-05 0.00011663567 -6.935391e-05 -9.3191034e-07 7.013398e-05 0.00011975931
7.864804e-06 -0.000113840986 -0.0001272732 4.9441034e-05 -0.00016748205 0.00013389428 4.4913413e-05 1.1968383e-05
2.7048418e-07 -0.00012350747 -0.00010393679 0.000113530936 -0.00015005124 2.9191237e-05 5.156449e-05 -0.00016307761
-0.00014366354 3.4390418e-05 -0.00015139532 4.341462e-05 2.0795687e-05 -2.236046e-05 -0.00011710321 -0.00012113606
-9.658112e-05 4.293589e-05 3.7545415e-05 9.411419e-05 -8.906513e-06 0.00013095846 0.00012057563 -0.00014914549
-1.38711075e-05 -1.9210944e-05 -6.8985595e-05 0.00012935734 -2.4355557e-05 1.12192665e-05 0.00017391723 9.52548e-06
-0.00010891275 5.2455096e-05 3.7542508e-05 6.078257e-05 -5.9224454e-05 0.00014653619 -0.00016625144 1.7539214e-05
00000000: 719c f138 e7e2 e338 eac1 23b9 5564 b7b8
00000010: d7b3 2e39 dadb 6438 9e71 8ab8 2209 28b8
00000020: 9fea c936 65da c138 53fc c237 55f1 f738
00000030: c781 0db7 b680 2039 32bc 73b8 8446 94b8
00000040: aa7e 3838 43b9 e037 dc1a 3439 dd7e 1db9
00000050: edfd c038 7e69 af38 dbe3 2739 dc24 8e38
00000060: c133 0139 b648 a037 cc62 33b9 da1f 1c39
00000070: 11b4 14b9 fdd4 1339 594d d437 9d15 05b9
00000080: c607 07b9 a9d5 e7b7 1c66 c7b5 cb66 a2b8
00000090: a36b eab8 2005 2c36 cf78 1e39 71fc 32b9
000000a0: bc77 28b9 b622 0739 ac9f cd38 3e3c 5b36
000000b0: c672 10b9 1635 02b9 c87d 1d39 ab21 ba37
000000c0: 311c 2339 4901 1139 2889 0eb9 964d 38b8
000000d0: 0cdb 92b8 189f 1c39 08d7 e038 0095 85b4
000000e0: 0f0a deb8 4dd5 8337 007e 37b7 cb7c e0b8
000000f0: 4a1f 1a39 3bf8 0cb9 f6de 1c39 b1bc 6938
00000100: 01c8 13b9 1936 14b8 dcd3 fd38 a818 8ab6
00000110: 8c73 2f39 03e2 7838 822e 2eb8 f64c 7837
00000120: a46b 14b7 d99e 9ab8 187c 2ab9 796e e7b7
00000130: 0d78 15b9 f329 a3b8 406b 7cb8 ff5e 1339
00000140: cee6 fc38 ef76 3536 beec a136 f502 60b8
00000150: 88ab a138 ea6e e3b7 8e79 1639 4502 84b8
00000160: 2206 2b39 fea2 c9b7 349a e238 189a f6b5
00000170: 6284 2139 d8f0 e938 fad7 1439 bb75 c238
00000180: 6050 a2b8 6a03 02b7 cf8c 97b8 8edd 0b39
00000190: b882 c438 693b 1539 6205 1039 760c d836
000001a0: 00b8 01b9 c204 08b9 4d4e 24b9 93fd 2f39
000001b0: 1e9e 1a36 062d e138 7d2f 07b9 ec17 0f37
000001c0: 4bbf 3338 0c8e 11b9 6ddb 8f37 1b2e a638
000001d0: b937 e938 666b 0f39 5bba eb38 8071 fab8
000001e0: 39d9 2039 b954 afb8 a8ec 3db8 1087 c5b4
000001f0: 1024 0db9 e86e 3038 c40a 45b7 cb2b c0b7
00000200: c45c 1639 ba2f 6b37 5b38 c138 d304 c6b7
00000210: 4f49 72b8 e327 b4b8 1f82 f038 5467 3fb8
00000220: 9b56 8837 716e ecb8 431a f5b8 ab23 b337
00000230: 0e8b 8d38 0240 a2b8 4455 33b9 7f7c 0e39
00000240: 41a5 0338 8680 f2b6 e389 1d39 df1c 16b8
00000250: ca8d 8a38 56aa 32b9 37a7 c8b8 d837 1b39
00000260: a29b beb7 f56d 3338 b40b 1739 2736 e2b7
00000270: da98 7a38 c421 12b9 3a0f d138 f7da 88b8
00000280: 73fa fab8 6046 0939 d0d0 0c39 93a2 0c39
00000290: 1ad1 77b8 28fe 9eb8 816e 01b8 442b ff37
000002a0: 77d0 8938 e655 2039 607f 0b39 6d6e 7ab8
000002b0: d75d 8f36 9077 3f38 3831 00b9 263b 7e37
000002c0: fc75 fd37 6c06 c938 327e 4837 85cd 15b9
000002d0: a581 9636 6f27 36b9 e41b 2a39 03f9 f0b8
000002e0: be46 2b39 0f74 e638 366f 07b9 94c7 7338
000002f0: 82b9 3639 3cfe d1b7 40f2 f0b8 3186 be38
00000300: c007 4138 300e f4b8 fae7 05b7 8ebc 12b9
00000310: 0a5c fdb8 2e34 09b9 c8f1 29b9 2706 fdb8
00000320: bd81 f438 4eae eeb8 fb73 72b8 4c9a f438
00000330: 1972 91b8 6428 7ab5 e514 9338 4a27 fb38
00000340: 13f3 0337 eabd eeb8 a474 05b9 e85e 4f38
00000350: 1f9e 2fb9 f965 0c39 6961 3c38 d0cb 4837
00000360: 1037 9134 c981 01b9 a4f8 d9b8 7517 ee38
00000370: 1357 1db9 b4df f437 f346 5838 d0ff 2ab9
00000380: 63a4 16b9 6e3e 1038 dfbf 1eb9 1818 3638
00000390: 6672 ae37 b992 bbb7 4f95 f5b8 6d0a feb8
000003a0: 988b cab8 1016 3438 157a 1d38 2c5f c538
000003b0: 2f6d 15b7 e551 0939 8cdd fc38 f063 1cb9
000003c0: f4b7 68b7 3027 a1b7 5cac 90b8 19a4 0739
000003d0: 294f ccb7 623a 3c37 8d5d 3639 a0cf 1f37
000003e0: 1668 e4b8 3b03 5c38 f676 1d38 caf0 7e38
000003f0: c667 78b8 82a7 1939 c853 2eb9 2d21 9337

base_model.model.model.layers.1.self_attn.v_proj.lora_A.weight f4 [2, 1152]
0.024374368 -0.001699995 0.029046655 -0.028938059 -0.019492256 0.023185048 -0.01762664 -0.024242409
-0.028342523 0.0037768935 -0.011116404 -0.024592137 0.0020293037 0.004396064 0.02823259 -0.018424725
0.01892874 -0.016166823 -0.004638391 -0.027457263 -0.0036122636 0.026528006 -0.012442092 -0.027809953
0.0037381558 0.028038181 0.024362916 0.0035683725 -0.018383868 -0.0008944568 -0.013909563 -0.02420994
0.023018602 0.0114706205 0.0012648745 0.00147475 -0.022214735 -0.0033446357 -0.0138572855 0.0148076285
0.027390826 0.017448366 -0.018321054 0.024905995 -0.028587349 0.011455108 -0.013863307 -0.011108519
-0.009779806 -0.016822848 -0.026710453 -0.0125660235 0.021766502 -0.0013849441 -0.010467471 0.010355718
0.016196402 0.0090245595 0.001688937 -0.009781216 -0.029313045 -0.024230067 0.0034632243 -0.02370753
0.01915854 -0.026008349 -0.018407991 0.0046814736 -0.005466608 0.027290167 0.01663999 0.015364839
0.0027684323 0.011416461 -0.01996331 -0.02016229 0.0058352556 0.024757773 -0.013793369 -0.0035203064
-0.02388118 -0.013219722 0.0036076463 -0.015938945 0.0036259263 -0.0270006 -0.016755508 0.015151253
0.009118583 0.0049636625 -0.019173622 -0.0028186075 -0.008673043 -0.012769489 0.004046768 0.019708611
0.011084804 0.0136794355 -0.00724395 -0.009524762 0.02123135 0.0036199216 0.015670104 -0.0013938516
-0.0028862667 0.0049417936 -0.0057783313 0.0037872025 -0.023627365 0.003640606 0.005585213 0.01293923
0.010830259 0.026210366 -0.006174349 0.029000243 0.027870884 0.02329105 0.017861867 -0.028313555
-0.02530653 -0.028783573 0.008290921 0.014224793 0.020960262 -0.005180696 0.0022513128 0.01170858
0.025629237 0.027256038 0.017011454 0.020606576 0.017049884 0.02075938 0.026665863 -0.011299681
-0.018701047 0.004347949 -0.004096626 -0.025308236 -0.018654047 -0.029165613 -0.025738828 0.0216296
-0.002743796 0.0022130301 0.0005227454 0.014625513 -0.02814912 -0.0011535222 0.006987591 -0.020576196
0.01542499 -0.0014955221 0.015302438 0.015099307 -0.021937188 -0.014318925 -0.014164804 0.029358612
0.008718111 -0.023733195 0.011288635 -0.011575906 -0.01332959 0.0025439651 0.0104990015 0.026067706
0.025032947 -0.0029363865 0.002569068 -0.02779383 0.015221459 -0.023996102 -0.022310317 -0.0005200315
0.003379939 0.012430341 -0.0069309156 0.021445008 -0.005304253 0.01212464 0.013862206 0.021148574
-0.011208088 -0.008858675 0.023005227 0.020758579 0.026635196 0.008950334 0.0065897983 0.015463697
-0.021141393 -0.021780185 -0.019458827 0.023153843 0.024660688 -0.0038954525 0.027924592 -0.015877565
0.010269427 -0.020017488 -0.02900007 0.004967139 0.018758312 0.028237203 0.016317291 0.02119146
0.01268311 -0.016076626 -0.0008116164 0.0058584837 -0.01010272 -0.02763885 -0.02850445 -0.0084686875
-0.011054827 -0.016142216 0.025361713 -0.006713112 -0.009421334 0.013468491 -0.02338181 -0.022653282
0.004134887 0.024864845 0.0008372038 -0.0121449735 -0.0011273634 0.02285137 -0.024697158 0.0210831
0.009383629 0.011259663 -0.026553316 0.023476029 0.007941109 0.027809892 0.0050536348 -0.01785845
-0.019246452 0.0075284503 0.0029780548 -0.0036694638 0.009720293 0.016895283 0.016244289 -0.018253677
-0.026333796 -0.004006472 0.026030175 0.028526423 -0.008963453 0.023336818 -0.012023321 -0.02312484
00000000: c1ac c73c 5ed2 deba 40f3 ed3c 820f edbc
00000010: 39ae 9fbc 92ee bd3c be65 90bc 0498 c6bc
00000020: 942e e8bc c285 773b 9421 36bc 7375 c9bc
00000030: 11fe 043b dc0c 903b 0848 e73c 73ef 96bc
00000040: 7210 9b3c 4970 84bc a5fd 97bb 0eee e0bc
00000050: babb 6cbb 4351 d93c ebd9 4bbc b3d1 e3bc
00000060: d9fb 743b 54b0 e53c bd94 c73c 5bdb 693b
00000070: c499 96bc fb79 6aba f0e4 63bc ed53 c6bc
00000080: 8291 bc3c 45ef 3b3c 25ca a53a 664c c13a
00000090: adfb b5bc ad31 5bbb ab09 63bc b29b 723c
000000a0: ba62 e03c e0ef 8e3c 0916 96bc a807 cc3c
000000b0: 0430 eabc 35ae 3b3c ed22 63bc 8100 36bc
000000c0: 7b3b 20bc 12d0 89bc e1cf dabc b9e1 4dbc
000000d0: aa4f b23c 0387 b5ba c17f 2bbc 08ab 293c
000000e0: 51ae 843c bfdb 133c 525f dd3a 6541 20bc
000000f0: e921 f0bc 227e c6bc 43f7 623b 4b36 c2bc
00000100: 5ff2 9c3c 760f d5bc 5bcc 96bc 0c67 993b
00000110: 3b21 b3bb a18f df3c 9750 883c cebc 7b3c
00000120: 966e 353b 1c0c 3b3c 188a a3bc 632b a5bc
00000130: ac35 bf3b d0d0 ca3c 95fd 61bc f1b4 66bb
00000140: 77a2 c3bc 8897 58bc 436e 6c3b 6492 82bc
00000150: f3a0 6d3b 5d30 ddbc d942 89bc f63c 783c
00000160: 1c66 153c 38a6 a23b 0012 9dbc 63b8 38bb
00000170: 6119 0ebc 1e37 51bc c09a 843b f473 a13c
00000180: 0a9d 353c b61f 603c a85e edbb bf0d 1cbc
00000190: 5eed ad3c 353c 6d3b 975e 803c e6b1 b6ba
000001a0: 8527 3dbb c5ee a13b 2858 bdbb b732 783b
000001b0: 2d8e c1bc 3c97 6e3b 2a04 b73b 10ff 533c
000001c0: 6671 313c 1fb7 d63c 3252 cabb eb91 ed3c
000001d0: 7b51 e43c dfcc be3c 0d53 923c d4f1 e7bc
000001e0: a44f cfbc 87cb ebbc a5d6 073c 1b0f 693c
000001f0: dbb4 ab3c d4c2 a9bb c38a 133b 58d5 3f3c
00000200: 68f4 d13c 0e48 df3c 9b5b 8b3c 1fcf a83c
00000210: 33ac 8b3c 930f aa3c 5e72 da3c 4c22 39bc
00000220: f032 99bc 3d79 8e3b fd3c 86bb 3853 cfbc
00000230: 5fd0 98bc b9ec eebc 3cda d2bc 8f30 b13c
00000240: 42d1 33bb 7c08 113b da08 093a d99f 6f3c
00000250: fc98 e6bc c831 97ba 29f8 e43b 698f a8bc
00000260: 19b9 7c3c 6505 c4ba 14b7 7a3c 1563 773c
00000270: 9eb5 b3bc ed99 6abc 7e13 68bc 7981 f03c
00000280: 68d6 0e3c 1e6c c2bc f8f3 383c dea8 3dbc
00000290: 5a64 5abc a7b8 263b 0104 2c3c f18b d53c
000002a0: e511 cd3c 6470 40bb cf5d 283b e3af e3bc
000002b0: 6d63 793c 7993 c4bc 20c4 b6bc b952 08ba
000002c0: f781 5d3b a1a8 4b3c bc1c e3bb 71ad af3c
000002d0: 4dcf adbb 6da6 463c 4e1e 633c c63f ad3c
000002e0: 21a2 37bc fa23 11bc 7575 bc3c e50d aa3c
000002f0: 0e32 da3c 6ca4 123c 3cef d73b 725b 7d3c
00000300: b730 adbc 5c6c b2bc 1e68 9fbc 21ad bd3c
00000310: 3605 ca3c d94a 7fbb 1dc2 e43c ab11 82bc
00000320: 1941 283c b7fb a3bc 8e91 edbc 62c3 a23b
00000330: 08ab 993c b551 e73c d7ab 853c b699 ad3c
00000340: d2cc 4f3c 21b3 83bc a8c2 54ba 86f8 bf3b
00000350: e185 25bc df6a e2bc 2a82 e9bc 40c0 0abc
00000360: 4e1f 35bc ae3c 84bc 5ec3 cf3c aaf9 dbbb
00000370: f05b 1abc f2aa 5c3c 368b bfbc 6093 b9bc
00000380: f27d 873b 5cb1 cb3c cc77 5b3a b6fb 46bc
00000390: 0ac4 93ba cc32 bb3c b251 cabc 77b6 ac3c
000003a0: cbbd 193c 737a 383c 5786 d9bc cd50 c03c
000003b0: 6d1b 023c 92d1 e33c f698 a53b e24b 92bc
000003c0: bcaa 9dbc 38b1 f63b 782b 433b 637b 70bb
000003d0: dd41 1f3c fa67 8a3c be12 853c bc88 95bc
000003e0: f9b9 d7bc b948 83bb 3c3d d53c 3fb0 e93c
000003f0: 72db 12bc db2c bf3c 77fd 44bc 4e70 bdbc
